…
2025-05-22 18:27:12,571 - WARNING - PyYAML not installed. Configuration will use default values.
2025-05-22 18:27:13,913 - ERROR - Error in train_model: mat1 and mat2 shapes cannot be multiplied (64x32 and 128x512)
2025-05-22 18:27:13,914 - ERROR - Error in main: mat1 and mat2 shapes cannot be multiplied (64x32 and 128x512)
2025-05-22 18:28:24,689 - WARNING - PyYAML not installed. Configuration will use default values.
2025-05-22 18:28:24,989 - INFO - Input tensor shape: torch.Size([885, 1, 32, 32])
2025-05-22 18:28:25,108 - INFO - Model architecture:
AdvancedCreditCardNet(
  (conv1): Sequential(
    (0): Conv2d(1, 32, kernel_size=(3, 3), stride=(1, 1), padding=(1, 1))
    (1): BatchNorm2d(32, eps=1e-05, momentum=0.1, affine=True, track_running_stats=True)
    (2): ReLU(inplace=True)
  )
  (layer1): Sequential(
    (0): ResidualBlock(
      (conv1): Conv2d(32, 32, kernel_size=(3, 3), stride=(1, 1), padding=(1, 1), bias=False)
      (bn1): BatchNorm2d(32, eps=1e-05, momentum=0.1, affine=True, track_running_stats=True)
      (conv2): Conv2d(32, 32, kernel_size=(3, 3), stride=(1, 1), padding=(1, 1), bias=False)
      (bn2): BatchNorm2d(32, eps=1e-05, momentum=0.1, affine=True, track_running_stats=True)
      (shortcut): Sequential()
      (se): SEBlock(
        (squeeze): AdaptiveAvgPool2d(output_size=1)
        (excitation): Sequential(
          (0): Linear(in_features=32, out_features=2, bias=False)
          (1): ReLU(inplace=True)
          (2): Linear(in_features=2, out_features=32, bias=False)
          (3): Sigmoid()
        )
      )
      (attention): AttentionBlock(
        (query): Conv2d(32, 4, kernel_size=(1, 1), stride=(1, 1))
        (key): Conv2d(32, 4, kernel_size=(1, 1), stride=(1, 1))
        (value): Conv2d(32, 32, kernel_size=(1, 1), stride=(1, 1))
      )
      (dropout): Dropout2d(p=0.2, inplace=False)
    )
    (1): ResidualBlock(
      (conv1): Conv2d(32, 32, kernel_size=(3, 3), stride=(1, 1), padding=(1, 1), bias=False)
      (bn1): BatchNorm2d(32, eps=1e-05, momentum=0.1, affine=True, track_running_stats=True)
      (conv2): Conv2d(32, 32, kernel_size=(3, 3), stride=(1, 1), padding=(1, 1), bias=False)
      (bn2): BatchNorm2d(32, eps=1e-05, momentum=0.1, affine=True, track_running_stats=True)
      (shortcut): Sequential()
      (se): SEBlock(
        (squeeze): AdaptiveAvgPool2d(output_size=1)
        (excitation): Sequential(
          (0): Linear(in_features=32, out_features=2, bias=False)
          (1): ReLU(inplace=True)
          (2): Linear(in_features=2, out_features=32, bias=False)
          (3): Sigmoid()
        )
      )
      (attention): AttentionBlock(
        (query): Conv2d(32, 4, kernel_size=(1, 1), stride=(1, 1))
        (key): Conv2d(32, 4, kernel_size=(1, 1), stride=(1, 1))
        (value): Conv2d(32, 32, kernel_size=(1, 1), stride=(1, 1))
      )
      (dropout): Dropout2d(p=0.2, inplace=False)
    )
  )
  (layer2): Sequential(
    (0): ResidualBlock(
      (conv1): Conv2d(32, 64, kernel_size=(3, 3), stride=(2, 2), padding=(1, 1), bias=False)
      (bn1): BatchNorm2d(64, eps=1e-05, momentum=0.1, affine=True, track_running_stats=True)
      (conv2): Conv2d(64, 64, kernel_size=(3, 3), stride=(1, 1), padding=(1, 1), bias=False)
      (bn2): BatchNorm2d(64, eps=1e-05, momentum=0.1, affine=True, track_running_stats=True)
      (shortcut): Sequential(
        (0): Conv2d(32, 64, kernel_size=(1, 1), stride=(2, 2), bias=False)
        (1): BatchNorm2d(64, eps=1e-05, momentum=0.1, affine=True, track_running_stats=True)
      )
      (se): SEBlock(
        (squeeze): AdaptiveAvgPool2d(output_size=1)
        (excitation): Sequential(
          (0): Linear(in_features=64, out_features=4, bias=False)
          (1): ReLU(inplace=True)
          (2): Linear(in_features=4, out_features=64, bias=False)
          (3): Sigmoid()
        )
      )
      (attention): AttentionBlock(
        (query): Conv2d(64, 8, kernel_size=(1, 1), stride=(1, 1))
        (key): Conv2d(64, 8, kernel_size=(1, 1), stride=(1, 1))
        (value): Conv2d(64, 64, kernel_size=(1, 1), stride=(1, 1))
      )
      (dropout): Dropout2d(p=0.2, inplace=False)
    )
    (1): ResidualBlock(
      (conv1): Conv2d(64, 64, kernel_size=(3, 3), stride=(1, 1), padding=(1, 1), bias=False)
      (bn1): BatchNorm2d(64, eps=1e-05, momentum=0.1, affine=True, track_running_stats=True)
      (conv2): Conv2d(64, 64, kernel_size=(3, 3), stride=(1, 1), padding=(1, 1), bias=False)
      (bn2): BatchNorm2d(64, eps=1e-05, momentum=0.1, affine=True, track_running_stats=True)
      (shortcut): Sequential()
      (se): SEBlock(
        (squeeze): AdaptiveAvgPool2d(output_size=1)
        (excitation): Sequential(
          (0): Linear(in_features=64, out_features=4, bias=False)
          (1): ReLU(inplace=True)
          (2): Linear(in_features=4, out_features=64, bias=False)
          (3): Sigmoid()
        )
      )
      (attention): AttentionBlock(
        (query): Conv2d(64, 8, kernel_size=(1, 1), stride=(1, 1))
        (key): Conv2d(64, 8, kernel_size=(1, 1), stride=(1, 1))
        (value): Conv2d(64, 64, kernel_size=(1, 1), stride=(1, 1))
      )
      (dropout): Dropout2d(p=0.2, inplace=False)
    )
  )
  (layer3): Sequential(
    (0): ResidualBlock(
      (conv1): Conv2d(64, 128, kernel_size=(3, 3), stride=(2, 2), padding=(1, 1), bias=False)
      (bn1): BatchNorm2d(128, eps=1e-05, momentum=0.1, affine=True, track_running_stats=True)
      (conv2): Conv2d(128, 128, kernel_size=(3, 3), stride=(1, 1), padding=(1, 1), bias=False)
      (bn2): BatchNorm2d(128, eps=1e-05, momentum=0.1, affine=True, track_running_stats=True)
      (shortcut): Sequential(
        (0): Conv2d(64, 128, kernel_size=(1, 1), stride=(2, 2), bias=False)
        (1): BatchNorm2d(128, eps=1e-05, momentum=0.1, affine=True, track_running_stats=True)
      )
      (se): SEBlock(
        (squeeze): AdaptiveAvgPool2d(output_size=1)
        (excitation): Sequential(
          (0): Linear(in_features=128, out_features=8, bias=False)
          (1): ReLU(inplace=True)
          (2): Linear(in_features=8, out_features=128, bias=False)
          (3): Sigmoid()
        )
      )
      (attention): AttentionBlock(
        (query): Conv2d(128, 16, kernel_size=(1, 1), stride=(1, 1))
        (key): Conv2d(128, 16, kernel_size=(1, 1), stride=(1, 1))
        (value): Conv2d(128, 128, kernel_size=(1, 1), stride=(1, 1))
      )
      (dropout): Dropout2d(p=0.2, inplace=False)
    )
    (1): ResidualBlock(
      (conv1): Conv2d(128, 128, kernel_size=(3, 3), stride=(1, 1), padding=(1, 1), bias=False)
      (bn1): BatchNorm2d(128, eps=1e-05, momentum=0.1, affine=True, track_running_stats=True)
      (conv2): Conv2d(128, 128, kernel_size=(3, 3), stride=(1, 1), padding=(1, 1), bias=False)
      (bn2): BatchNorm2d(128, eps=1e-05, momentum=0.1, affine=True, track_running_stats=True)
      (shortcut): Sequential()
      (se): SEBlock(
        (squeeze): AdaptiveAvgPool2d(output_size=1)
        (excitation): Sequential(
          (0): Linear(in_features=128, out_features=8, bias=False)
          (1): ReLU(inplace=True)
          (2): Linear(in_features=8, out_features=128, bias=False)
          (3): Sigmoid()
        )
      )
      (attention): AttentionBlock(
        (query): Conv2d(128, 16, kernel_size=(1, 1), stride=(1, 1))
        (key): Conv2d(128, 16, kernel_size=(1, 1), stride=(1, 1))
        (value): Conv2d(128, 128, kernel_size=(1, 1), stride=(1, 1))
      )
      (dropout): Dropout2d(p=0.2, inplace=False)
    )
  )
  (fpn1): FPNBlock(
    (conv1): Conv2d(128, 64, kernel_size=(1, 1), stride=(1, 1))
    (conv2): Conv2d(64, 64, kernel_size=(3, 3), stride=(1, 1), padding=(1, 1))
    (upsample): Upsample(scale_factor=2.0, mode='bilinear')
  )
  (fpn2): FPNBlock(
    (conv1): Conv2d(64, 32, kernel_size=(1, 1), stride=(1, 1))
    (conv2): Conv2d(32, 32, kernel_size=(3, 3), stride=(1, 1), padding=(1, 1))
    (upsample): Upsample(scale_factor=2.0, mode='bilinear')
  )
  (classifier): Sequential(
    (0): AdaptiveAvgPool2d(output_size=1)
    (1): Flatten(start_dim=1, end_dim=-1)
    (2): Linear(in_features=32, out_features=512, bias=True)
    (3): BatchNorm1d(512, eps=1e-05, momentum=0.1, affine=True, track_running_stats=True)
    (4): ReLU(inplace=True)
    (5): Dropout(p=0.3, inplace=False)
    (6): Linear(in_features=512, out_features=10, bias=True)
  )
)
2025-05-22 18:28:29,545 - WARNING - PyYAML not installed. Configuration will use default values.
2025-05-22 18:28:29,560 - WARNING - PyYAML not installed. Configuration will use default values.
2025-05-22 18:28:55,068 - WARNING - PyYAML not installed. Configuration will use default values.
2025-05-22 18:28:55,068 - WARNING - PyYAML not installed. Configuration will use default values.
…
